…
order to reduce the spatial dimensions and increase the number of feature maps (Hossain, Mohon, 2019).  Furthermore, to prevent overfitting, a dropout layer 
was added to the model after the first dense layer. 

Results

The model achieved 99.4% accuracy on the validation set after 10 epochs and batches of size 128. Demonstrated below is the output after running the program.

Model: "sequential"
_________________________________________________________________
Layer (type)                 Output Shape              Param #   
=================================================================
conv2d (Conv2D)              (None, 26, 26, 16)        160       
_________________________________________________________________
conv2d_1 (Conv2D)            (None, 24, 24, 32)        4640      
_________________________________________________________________
max_pooling2d (MaxPooling2D) (None, 12, 12, 32)        0         
_________________________________________________________________
conv2d_2 (Conv2D)            (None, 10, 10, 64)        18496     
_________________________________________________________________
max_pooling2d_1 (MaxPooling2 (None, 5, 5, 64)          0         
_________________________________________________________________
flatten (Flatten)            (None, 1600)              0         
_________________________________________________________________
dense (Dense)                (None, 128)               204928    
_________________________________________________________________
dropout (Dropout)            (None, 128)               0         
_________________________________________________________________
dense_1 (Dense)              (None, 32)                4128      
_________________________________________________________________
dense_2 (Dense)              (None, 10)                330       
=================================================================
Total params: 232,682
Trainable params: 232,682
Non-trainable params: 0
_________________________________________________________________
2021-04-17 19:02:22.268619: I tensorflow/compiler/mlir/mlir_graph_optimization_pass.cc:116] None of the MLIR optimization passes are enabled (registered 2)
Epoch 1/10
469/469 [==============================] - 53s 112ms/step - loss: 0.7209 - accuracy: 0.7596 - val_loss: 0.0569 - val_accuracy: 0.9819
…
